content/best_model.pt (torch, 8699 bytes, 3 tensors)

net.0.weight f4 [512, 1]
0	0x3f2f140d	0.6838997
1	0x3f0bbfdc	0.5458963
2	0xbf1430fb	-0.5788724
3	0x3f0432df	0.51640123
4	0xbf2a30c9	-0.6648069
5	0xbf36d412	-0.71417344
6	0xbeb2ca03	-0.34919748
7	0x3eee9307	0.46596548
8	0xbefff02b	-0.4998792
9	0xbeb09d6e	-0.3449511
10	0xbe7a015b	-0.2441458
11	0x3f671fda	0.90282977
12	0xbf0234ee	-0.50862014
13	0xbf7a8264	-0.9785521
14	0xbf47de2c	-0.7807338
15	0xbe5189ba	-0.20462695
16	0xbe8793f0	-0.26480055
17	0x3e6e6ad8	0.23282945
18	0x3f61f170	0.8825903
19	0x3e542070	0.20715499
20	0xbf540dc6	-0.82833517
21	0xbee5c74b	-0.4487861
22	0xbf1944b6	-0.5987047
23	0x3f3eba8d	0.74503404
24	0xbebf4e4c	-0.37364423
25	0x3ee07695	0.4384047
26	0xbd4ffa99	-0.050776098
27	0xbf357923	-0.70887965
28	0x3d905320	0.07047105
29	0xbf478b62	-0.77947056
30	0xbf3d457f	-0.7393417
31	0xbe994fee	-0.29943794
32	0x3f0248b5	0.5089219
33	0x3f3bbb4c	0.7333267
34	0x3f5a911e	0.8537768
35	0x3eed454d	0.46341935
36	0x3e829d9e	0.25510877
37	0xbefeeab6	-0.49788445
38	0x3f03677e	0.5132979
39	0x3d86e1ab	0.065860115
40	0xbef8120c	-0.4845127
41	0xbf014974	-0.50502706
42	0xbaa36800	-0.0012466908
43	0xbe41e4d8	-0.18934953
44	0xbf51ac68	-0.81903696
45	0xbe19b794	-0.15011436
46	0x3f3ba841	0.7330361
47	0xbf30f88a	-0.6912924
48	0x3ee49338	0.4464357
49	0x3f3cd98a	0.7376944
50	0x3e89b601	0.2689667
51	0x3f010ffa	0.50415003
52	0x3ec5714b	0.38562998
53	0xbe925216	-0.28578252
54	0xbe4c2c03	-0.19938664
55	0x3e82767e	0.25481027
56	0xbf40fd02	-0.7538606
57	0xbf24af6f	-0.6433019
58	0x3ecf7076	0.40515488
59	0x3d5282d0	0.051394284
60	0xbf237acc	-0.6385925
61	0x3f33dd48	0.70259523
62	0xbe76f70b	-0.24117677
63	0x3eceb9b0	0.40376043
64	0x3ee1a73f	0.4407291
65	0x3f544f12	0.8293315
66	0x3dcd1340	0.10013437
67	0xbf485d4b	-0.78267354
68	0xbf253815	-0.645387
69	0x3f273036	0.6530794
70	0xbe9a3adc	-0.3012303
71	0xbf164748	-0.58702517
72	0xbec467e1	-0.38360503
73	0x3ebb2dc8	0.36558366
74	0x3ed69ceb	0.41916594
75	0x3e95b0c5	0.29236427
76	0xbe9748d1	-0.29547742
77	0x3ca59680	0.020213366
78	0x3f08afcd	0.5339325
79	0xbf4ce473	-0.80036086
80	0xbe788ba3	-0.24272017
81	0x3f464d99	0.77462155
82	0x3f0c27e1	0.5474835
83	0xbd928e9a	-0.07156105
84	0x3e176627	0.14785062
85	0xbf464126	-0.7744316
86	0xbf226fb4	-0.63451695
87	0xbf65e9d6	-0.8980993
88	0x3f6f4e2f	0.93478674
89	0x3e446e90	0.19182801
90	0x3ef5fa09	0.48042324
91	0x3ed9deba	0.4255274
92	0x3bf69300	0.007524848
93	0xbf53759d	-0.8260134
94	0x3f30b2f9	0.6902309
95	0xbf37f706	-0.718613
96	0x3f115730	0.5677366
97	0xbf0882bd	-0.5332449
98	0xbf356701	-0.70860296
99	0x3e73cbb5	0.23808177
100	0x3ec2be4f	0.3803582
101	0x3e9422a4	0.2893268
102	0xbf1be343	-0.6089365
103	0x3d2e01c0	0.042482138
104	0x3f60992a	0.8773371
105	0xbf50d714	-0.81578183
106	0xbf5c5452	-0.8606616
107	0x3f219d7e	0.6313094
108	0xbed6a149	-0.41919926
109	0xbef00d73	-0.4688526
110	0xbf0125c9	-0.5044828
111	0x3f4e6c9b	0.8063447
112	0xbd46d2ba	-0.04854081
113	0xbf18628c	-0.5952537
114	0x3ec673c4	0.38760197
115	0xbe100428	-0.14064085
116	0xbf0c036c	-0.5469272
117	0x3f369210	0.71316624
118	0x3d65b3c8	0.056079656
119	0x3f6c383f	0.92273325
120	0xbf4796ed	-0.7796467
121	0x3f40f300	0.7537079
122	0x3e11b6a8	0.14229834
123	0x3dd8a5c3	0.105784915
124	0x3ee41a0b	0.4455112
125	0xbdfcbf80	-0.12341213
126	0xbf1fbd08	-0.62397814
127	0x3f399b7e	0.7250289
128	0x3f3af345	0.7302745
129	0xbe3b6e7c	-0.18303865
130	0x3ee1b6ca	0.4408477
131	0x3f2cc0d2	0.6748172
132	0x3f155d8a	0.58345854
133	0x3f219bf2	0.6312858
134	0x3f48a8d9	0.7838264
135	0xbe24315f	-0.16034459
136	0xbe894e9b	-0.26817784
137	0xbe989a28	-0.29805112
138	0x3ebcd83a	0.36883718
139	0x3e20a8b0	0.15689349
140	0xbf6385c5	-0.8887599
141	0x3eed4ae6	0.46346205
142	0x3d941592	0.07230677
143	0x3f3c1b42	0.7347909
144	0x3e3cef10	0.1845057
145	0x3e60a19a	0.21936646
146	0x3eadf664	0.33977044
147	0x3f078aea	0.5294634
148	0x3eb27ff4	0.34863245
149	0xbed0591a	-0.4069298
150	0xbf1af843	-0.6053507
151	0x3f81f80e	1.0153825
152	0xbf0691e6	-0.52566373
153	0xbf482180	-0.78176117
154	0xbebb2835	-0.36554113
155	0x3db5f016	0.088836834
156	0x3f848753	1.0353798
157	0xbd399c00	-0.04531479
158	0x3f82ef34	1.0229249
159	0xbe99f565	-0.30070034
160	0xbf017816	-0.5057386
161	0xbf41272e	-0.7545041
162	0x3e8a9e75	0.27074018
163	0xbf57c60f	-0.8428659
164	0x3f5ebf5c	0.8701074
165	0x3f5f3c00	0.8720093
166	0xbe684fbd	-0.22686668
167	0x3e767c03	0.24070744
168	0x3eeaf6f7	0.45891544
169	0xbeec43c1	-0.46145442
170	0xbe4ddb33	-0.20103149
171	0x3d1a86a2	0.037726052
172	0xbea5a37e	-0.32351297
173	0x3f4799b3	0.779689
174	0xbf528ef9	-0.8224941
175	0x3f37453a	0.71590006
176	0xbf171bbe	-0.59026706
177	0xbf58962a	-0.8460413
178	0xbf3582db	-0.70902795
179	0xbe9fafb0	-0.31188726
180	0x3f1114a2	0.5667211
181	0x3f0f9f40	0.5610237
182	0xbe9dc91d	-0.308175
183	0x3de509f9	0.11183543
184	0xbf2538f9	-0.6454006
185	0xbf03b6e2	-0.5145093
186	0xbe2f99b9	-0.17148484
187	0x3f0ecc2c	0.5578029
188	0xbcdca140	-0.026932359
189	0xbe3a5840	-0.18197727
190	0x3f6a9a05	0.91641265
191	0x3f2fbad5	0.6864446
192	0x3f36b58d	0.71370775
193	0xbeb4d6c3	-0.353201
194	0xbf5fccc6	-0.87421834
195	0xbea7cb8d	-0.32772484
196	0xbd651ac0	-0.055933714
197	0xbf03a28a	-0.5141989
198	0xbee704fb	-0.45120987
199	0x3e53de44	0.20690256
200	0xbd9eb904	-0.07750133
201	0x3ee2a8c0	0.4426937
202	0xbe147a10	-0.14499688
203	0x3f3e9f10	0.7446146
204	0x3effb1d0	0.49940348
205	0xbf58f23d	-0.84744626
206	0xbf0df395	-0.554498
207	0xbeb0889b	-0.34479222
208	0xbdcb4b00	-0.099264145
209	0x3f0b13b4	0.5432694
210	0xbf0296cf	-0.51011366
211	0x3f640f02	0.890854
212	0xbedd55e3	-0.4322959
213	0xbde3d550	-0.111246705
214	0x3f0f2e4a	0.55930007
215	0x3f34d7e1	0.70641905
216	0xbf2597fb	-0.6468503
217	0xbda32750	-0.07966483
218	0x3c86b380	0.016443014
219	0x3f6b8ebd	0.92014676
220	0xbd403a60	-0.04693067
221	0xbe62eba0	-0.22160196
222	0xbe48d310	-0.19611764
223	0x3f2295f4	0.6351006
224	0x3f630a55	0.8868764
225	0x3f3f6523	0.747637
226	0x3d6479e4	0.055780306
227	0xbf377809	-0.71667534
228	0xbf5f504c	-0.872319
229	0x3f5fef6d	0.8747471
230	0x3ea6ea6c	0.32600725
231	0x3f6d985b	0.928106
232	0xbea74da4	-0.32676423
233	0x3f136ebb	0.57590836
234	0x3f25b7e3	0.64733714
235	0xbf14c092	-0.5810634
236	0x3f1f5ac8	0.62247896
237	0xbeef2da2	-0.46714503
238	0x3f12d6aa	0.573588
239	0xbe52e791	-0.20596148
240	0x3e229bcf	0.15879749
241	0xbe1b34d8	-0.15156877
242	0x3f121285	0.5705951
243	0x3eb88c99	0.36044767
244	0xbeae1950	-0.34003687
245	0xbf41b7a1	-0.7567082
246	0x3f0150cb	0.50513905
247	0x3d9d8a26	0.07692365
248	0x3f696607	0.91171306
249	0xbf7180b4	-0.9433701
250	0xbf169101	-0.5881501
251	0x3f1a5881	0.60291296
252	0xbf321996	-0.6957029
253	0x3eb06dac	0.34458673
254	0x3f0cc1cc	0.5498321
255	0x3f1efa4b	0.62100667

net.0.bias f4 [512]
0	0xbf4c1756	-0.7972311
1	0x3f2ff255	0.68729144
2	0xbf600e1f	-0.8752155
3	0x3f41eb8a	0.7575003
4	0x3f0038cd	0.5008667
5	0xbf88cc5c	-1.0687366
6	0x3e4cc6cc	0.1999771
7	0xbf355be6	-0.7084335
8	0x3f41b6c8	0.7566953
9	0x3e2e0700	0.16994858
10	0x3ebf7c21	0.3739939
11	0xbe803545	-0.2504064
12	0x3ece73d7	0.40322754
13	0xbf6162b8	-0.8804126
14	0x3f0f2d4c	0.5592849
15	0x3ef39fc0	0.47582817
16	0xbf3fa574	-0.74861836
17	0xbf4f5688	-0.8099141
18	0xbf057a2e	-0.52139556
19	0xbf6112dc	-0.879194
20	0x3ef8e1ab	0.4860967
21	0x3d8b269c	0.067944735
22	0xbf514852	-0.8175098
23	0xbf880c3c	-1.0628734
24	0x3e742b51	0.23844649
25	0xbea22f06	-0.316765
26	0x3d9fa2b5	0.07794706
27	0xbf00208b	-0.50049657
28	0x3ed8150c	0.42203557
29	0x3ef537b9	0.47894076
30	0xbf8c165e	-1.0944326
31	0x3ee9731d	0.45595637
32	0x3eac8d8a	0.33701736
33	0xbea30e2f	-0.3184676
34	0x3f0db514	0.5535443
35	0x3f3108f3	0.6915428
36	0x3d4066db	0.04697309
37	0x3f414e20	0.75509834
38	0x3e958fd0	0.29211283
39	0x3f3436f7	0.7039637
40	0xbe964929	-0.29352692
41	0xbf408519	-0.7520309
42	0xbe6af748	-0.22945893
43	0xbedc1410	-0.42984056
44	0x3d3d30e6	0.04618921
45	0x3f2df814	0.6795666
46	0x3ef22005	0.47290054
47	0xbead06b6	-0.33794183
48	0xbf6ada9c	-0.9173982
49	0xbea5ec05	-0.3240663
50	0xbecd9fc0	-0.40160942
51	0x3e292702	0.16518787
52	0xbe034e9e	-0.12822959
53	0xbed10e62	-0.40831286
54	0x3f15fad4	0.5858586
55	0xbe1cd9ae	-0.15317413
56	0xbe9fc703	-0.3120652
57	0x3e9da8c9	0.30792835
58	0x3f1d81f9	0.6152645
59	0xbdd2b662	-0.10288693
60	0x3ed91ce1	0.42404845
61	0x3e4a5411	0.19758631
62	0xbeaf6b58	-0.34261584
63	0xbf7ef318	-0.9958968
64	0xbf24056e	-0.64070785
65	0xbeea3a98	-0.45747828
66	0xbef4ae74	-0.47789347
67	0x3f3da9a8	0.74087
68	0x3e0d819c	0.13818973
69	0xbf7990af	-0.97486395
70	0xbeead987	-0.45869085
71	0x3eda1e47	0.42601225
72	0x3f17b27f	0.5925674
73	0x3f0f25c2	0.5591699
74	0x3f21ff8e	0.6328057
75	0x3e474897	0.19461285
76	0x3f2cf122	0.6755544
77	0xbf6a0672	-0.91416085
78	0xbf48c000	-0.7841797
79	0xbecf7e54	-0.40526068
80	0x3f130483	0.5742876
81	0xbf586164	-0.84523606
82	0xbf56f3f6	-0.83966005
83	0x3f336e4b	0.7009017
84	0x3d29dc11	0.041469637
85	0x3e504361	0.20338203
86	0xbf5d6ebe	-0.86497104
87	0xbf38b225	-0.72146827
88	0xbefb2767	-0.490535
89	0xbe95ae8a	-0.29234725
90	0xbe6e1465	-0.23249967
91	0xbf1d027c	-0.61331916
92	0xbe452770	-0.19253325
93	0xbe348e59	-0.17632426
94	0xbf842f9c	-1.0327029
95	0xbef2b8ea	-0.47406703
96	0x3e9329e1	0.2874289
97	0x3e9031ef	0.28163096
98	0xbf7bee6a	-0.98410666
99	0x3f2a7910	0.66590977
100	0x3dd66537	0.10468524
101	0xbf56eeaa	-0.8395792
102	0x3ef0f8f8	0.47064948
103	0xbf2ae278	-0.66751814
104	0xbee55010	-0.44787645
105	0x3ee0b3fc	0.43887317
106	0xbedc73a3	-0.43056974
107	0xbf745c8b	-0.9545371
108	0x3dfdcf84	0.12393096
109	0x3e923305	0.2855455
110	0x3ea32c9a	0.31869966
111	0x3f0fee88	0.56223345
112	0x3c7975c2	0.01522583
113	0x3e6fd6d1	0.2342179
114	0xbf4e2d38	-0.8053775
115	0xbf7f557e	-0.99739826
116	0xbe0c7828	-0.13717711
117	0xbe436a45	-0.19083507
118	0xbdae22a6	-0.085027024
119	0xbf29eed9	-0.6638008
120	0x3e0ff204	0.14057165
121	0xbdfd33ee	-0.123634204
122	0xbee5e29c	-0.44899452
123	0x3f0fc79e	0.56163967
124	0x3f2c9a24	0.674227
125	0xbf303188	-0.6882558
126	0xbf728dfd	-0.94747907
127	0xbd5057d8	-0.050865024
128	0xbe1826cf	-0.14858554
129	0xbd6dee2e	-0.058088474
130	0x3ec28b88	0.3799708
131	0xbf7ddfbd	-0.9916952
132	0xbf477128	-0.7790704
133	0x3d42e325	0.047579903
134	0x3f2c7b52	0.6737567
135	0x3e77eff7	0.24212633
136	0xbebda3e6	-0.37039107
137	0xbf728ffa	-0.9475094
138	0x3d898581	0.06714917
139	0xbf41b020	-0.7565937
140	0xbf237fd4	-0.63866925
141	0x3f0ccc3f	0.54999155
142	0x3e42e653	0.19033174
143	0xbed762ec	-0.4206766
144	0xbe91b2cb	-0.2845672
145	0x3ea80801	0.32818606
146	0x3efb2157	0.49048874
147	0x3d903e3b	0.070431195
148	0xbf6cc872	-0.92493355
149	0xbe01e950	-0.12686658
150	0x3e62653a	0.22108927
151	0xbf30fd53	-0.6913654
152	0xbf4ac67b	-0.7920911
153	0xbe9cd800	-0.30633545
154	0x3f103d1f	0.56343263
155	0x3e88cc20	0.26718235
156	0xbf38d8f6	-0.72206056
157	0xbf699702	-0.91246045
158	0xbf3c0fed	-0.734618
159	0x3e288c47	0.16459762
160	0x3edad843	0.4274312
161	0xbe6ff676	-0.23433861
162	0xbed5d415	-0.41763368
163	0xbf8ed971	-1.1160108
164	0xbea03afc	-0.31295002
165	0x3ee7ded7	0.452872
166	0x3ef27f6a	0.47362834
167	0x3e82725a	0.25477868
168	0xbf6af80a	-0.9178473
169	0x3d9b6bea	0.07588942
170	0xbecde752	-0.40215546
171	0x3f32a10b	0.6977698
172	0x3defa0f2	0.1170062
173	0xbf897792	-1.0739615
174	0xbdd8593d	-0.10563896
175	0xbf89968c	-1.0749068
176	0xbdb787f2	-0.089614764
177	0xbc7f1d00	-0.015570879
178	0xbf892d6b	-1.0716985
179	0xbf78aac2	-0.97135556
180	0xbe12761b	-0.14302866
181	0x3e5a5669	0.21322025
182	0x3e91e951	0.2849832
183	0x3f29443a	0.6611973
184	0x3f0d7982	0.5526353
185	0xbdb99bda	-0.090629295
186	0xbd9d063c	-0.07667205
187	0xbed2a73f	-0.41143224
188	0xbee902ec	-0.45510042
189	0xbecf59bc	-0.4049815
190	0xbf3804f1	-0.7188254
191	0xbec3437a	-0.38137418
192	0xbf745190	-0.95436954
193	0x3de0fd25	0.109857835
194	0x3ed12643	0.40849504
195	0xbee615a5	-0.44938388
196	0xbef0a968	-0.47004247
197	0xbe9989a8	-0.29987836
198	0x3e412473	0.1886156
199	0xbe873494	-0.264073
200	0x3eab52c7	0.33461592
201	0x3e8e2614	0.27763426
202	0xbf4882cc	-0.7832458
203	0x3d7c0a18	0.061533064
204	0xbf7fb1ec	-0.9988086
205	0x3e789a48	0.24277604
206	0xbdb4b589	-0.088236876
207	0xbf051ffc	-0.5200193
208	0xbf5f8802	-0.87316906
209	0x3f50af4b	0.81517476
210	0xbe9242d4	-0.2856661
211	0xbf375ad2	-0.71622956
212	0x3f25f6e1	0.6482983
213	0xbf0a8d30	-0.54121685
214	0xbf59d3e7	-0.8508896
215	0xbeeec0aa	-0.46631366
216	0x3db08a02	0.08620073
217	0xbf7d6d3e	-0.98994815
218	0xbdbd9250	-0.092564225
219	0xbf18dc44	-0.597111
220	0xbf2b7d22	-0.6698781
221	0xbf248392	-0.6426326
222	0xbf5d2f1a	-0.86399996
223	0xbef06067	-0.4694855
224	0x3f0090c4	0.50220895
225	0xbf065b63	-0.52483195
226	0x3e438f87	0.1909772
227	0xbf888992	-1.0666983
228	0x3dcbf5ca	0.0995899
229	0x3e636979	0.22208203
230	0xbf5a9a5e	-0.85391796
231	0xbec93ebb	-0.39305672
232	0xbf7a6670	-0.9781256
233	0x3ed23cd2	0.41062027
234	0xbf687fda	-0.90820086
235	0xbeda5217	-0.42640755
236	0x3e68b1a3	0.22724013
237	0xbe87d732	-0.26531368
238	0xbf627b3e	-0.884693
239	0xbea0649f	-0.31326768
240	0x3d7c68b8	0.061623305
241	0xbf3e5724	-0.74351716
242	0x3ea1d473	0.31607398
243	0xbf0c55b3	-0.54818267
244	0x3f05489b	0.5206391
245	0xbf90822b	-1.1289724
246	0xbf11da59	-0.569738
247	0x3f20d202	0.62820446
248	0xbf1111e7	-0.5666794
249	0xbed29f7a	-0.41137296
250	0xbf38b286	-0.72147405
251	0x3eccf533	0.40030822
252	0x3f125705	0.5716403
253	0x3ef8d94f	0.48603293
254	0x3ea97cd5	0.33103052
255	0x3e610c2b	0.21977298

net.2.weight f4 [1, 512]
0	0x3df19f0e	0.117979154
1	0xbe172f41	-0.1476412
2	0xbec87dd5	-0.39158502
3	0xbe8d9ab0	-0.2765708
4	0xbdd4f781	-0.1039877
5	0xbee64de7	-0.4498131
6	0xbde91915	-0.11381737
7	0x3e83ccdc	0.25742233
8	0x3e91930c	0.284325
9	0xbdd98eff	-0.106229775
10	0x3e08b603	0.13350682
11	0xbe151b79	-0.14561261
12	0xbd7a327b	-0.0610833
13	0xbd3d9799	-0.046287153
14	0xbe0f9067	-0.14019929
15	0x3a858f19	0.0010189741
16	0x3d242dbc	0.04008268
17	0xbc5f5b81	-0.013632656
18	0xbe746204	-0.23865515
19	0x3d182222	0.037141927
20	0xbe6bdf5c	-0.23034424
21	0xbd30caa9	-0.04316202
22	0xbe894a69	-0.26814583
23	0x3eaf40c9	0.34229115
24	0xbde8764a	-0.11350687
25	0xbdb1196e	-0.086474285
26	0x3d0c2b88	0.034221202
27	0x3dc1dfb7	0.09466498
28	0x3d1af44b	0.037830632
29	0xbe54d946	-0.20786008
30	0xbee6a704	-0.45049298
31	0x3e33fd46	0.17577085
32	0x3e007c88	0.12547505
33	0xbe337f40	-0.17529011
34	0x3e321807	0.17391978
35	0xbe7eb4d1	-0.24873663
36	0x3d4d7309	0.050158534
37	0x3e8de99e	0.27717298
38	0x3dee2279	0.11627669
39	0xbc1cd666	-0.009572601
40	0x3e02f51e	0.12788817
41	0xbea50b5c	-0.3223523
42	0xbccc73fd	-0.024957651
43	0xbc12e9ba	-0.008966858
44	0xbd102e55	-0.035200436
45	0x3c8105bc	0.015749805
46	0x3e30991c	0.17245907
47	0x3e3d160f	0.18465446
48	0xbd01eda2	-0.031720765
49	0xbe3d8caf	-0.18510698
50	0x3e1999d3	0.15000086
51	0x3ddb8178	0.107180536
52	0xbd52f7b5	-0.051505763
53	0xbe266f7e	-0.16253468
54	0xbb69f446	-0.0035698577
55	0xbd1a87c4	-0.037727132
56	0x3e3a6474	0.18202382
57	0xbe521e0e	-0.20519277
58	0xbe64343f	-0.22285555
59	0xbce92b6d	-0.02846309
60	0xbe1cbcd1	-0.15306403
61	0x3e49b4ce	0.19697878
62	0xbde1eef5	-0.110319056
63	0x3d1d324c	0.038378045
64	0x3e503306	0.20331964
65	0xbe348ecf	-0.17632602
66	0x3b8d051d	0.004303588
67	0x3c2c3d6f	0.010512694
68	0xbdd67837	-0.10472148
69	0x3ebdba4e	0.37056202
70	0xbe5ef66a	-0.21773687
71	0xbdb68611	-0.0891229
72	0x3e00c459	0.125749
73	0xbe734143	-0.23755364
74	0xbe61326c	-0.2199189
75	0x3d9513c2	0.07279159
76	0x3ad4da06	0.0016239292
77	0x3c7ce0d7	0.015434465
78	0x3e8de771	0.27715638
79	0x3e258f7c	0.16168016
80	0xbc93a95c	-0.018025093
81	0x3dd6651b	0.10468503
82	0x3e7d6128	0.24744093
83	0xbba48154	-0.0050203
84	0x3c8361a4	0.01603777
85	0xbe304d11	-0.17216899
86	0xbe8f6aed	-0.28011265
87	0x3ccac09d	0.024750048
88	0xbe57272a	-0.21011034
89	0x3e099ca8	0.13438666
90	0xbdd03aa1	-0.101674326
91	0x3e46df1d	0.19421048
92	0x3d216ea7	0.039412167
93	0x3de4fca7	0.11181002
94	0x3eca7c55	0.39547983
95	0x3dde00e3	0.10840013
96	0x3e12f110	0.1434977
97	0xbe00777e	-0.12545583
98	0xbeac4d2b	-0.33652624
99	0x3b478e19	0.0030449687
100	0x3dd32bf7	0.1031112
101	0xbc5da316	-0.013527652
102	0xbd97e11d	-0.07415984
103	0x3ca8ec4f	0.020620493
104	0xbe770556	-0.24123129
105	0xbe6a9a21	-0.22910358
106	0x3e693502	0.22774127
107	0x3ec05c05	0.37570205
108	0xbd91729e	-0.071019396
109	0xbdcb1059	-0.099152274
110	0xbdc3c4a3	-0.0955899
111	0x3e19bcd1	0.15013434
112	0xbcf6abc0	-0.030111194
113	0xbe294b0f	-0.16532539
114	0xbcd3b4f6	-0.025843125
115	0xbc0327fe	-0.00800514
116	0x3dc9d19c	0.09854433
117	0xbdfdbf98	-0.12390059
118	0x3d0b68f8	0.034035653
119	0xbe0d3081	-0.13788034
120	0xbdcb75ff	-0.09934615
121	0xbd5287c4	-0.051399007
122	0x3d2843ff	0.04108047
123	0x3cfd32f4	0.030908085
124	0xbe828de9	-0.25498894
125	0x3ccf3565	0.025294015
126	0xbed54241	-0.4165211
127	0x3a901c8c	0.0010994836
128	0xbdd6a253	-0.1048018
129	0x3cc4bd0a	0.024015922
130	0x3c154b15	0.009112139
131	0x3ea96f44	0.330927
132	0x3e4966c5	0.1966811
133	0x3d15f6fd	0.0366125
134	0x3cc3015f	0.023804365
135	0x3d87070c	0.06593141
136	0xbe0507d4	-0.12991267
137	0xbaa42e9a	-0.0012526095
138	0x3db87396	0.09006421
139	0xbccbfc58	-0.0249006
140	0x3dde99a6	0.1086915
141	0xbdc52f81	-0.09628201
142	0x3cbfb7d3	0.023403084
143	0xbe2d9240	-0.16950321
144	0x3d780089	0.060547385
145	0xbde92b38	-0.113851964
146	0xbe1980d0	-0.14990544
147	0x3d4d4dfb	0.050123196
148	0x3d092dc7	0.033490922
149	0x3dab0298	0.08350104
150	0xbdfb0fda	-0.12258883
151	0xbe3cbf77	-0.18432413
152	0xbe9d93c8	-0.3077681
153	0x3e328cfa	0.17436591
154	0x3e185ad6	0.14878401
155	0xbc1b01cb	-0.009460877
156	0xbe3f57ec	-0.18685883
157	0x3ab8d5fe	0.001410186
158	0xbe1a84cb	-0.15089719
159	0xbd95eedf	-0.07320952
160	0xbd15b43a	-0.03654883
161	0x3e30f88b	0.17282312
162	0x3dbfa454	0.09357515
163	0xbea5d1dd	-0.32386675
164	0xbe283ff7	-0.1643065
165	0x3e774251	0.24146391
166	0xbce0924c	-0.02741351
167	0xbc96eba9	-0.018422918
168	0xbcb6f25b	-0.022332361
169	0xbdb5b52b	-0.08872446
170	0x3d26ac1f	0.04069149
171	0x3d02bd3c	0.03191875
172	0xbd877e6f	-0.06615912
173	0x3e953a89	0.2914622
174	0x3d1fd410	0.039020598
175	0x3edd44a7	0.4321644
176	0x3da01f49	0.07818467
177	0x3c5bbf6f	0.013412341
178	0xbef1117d	-0.47083655
179	0x3bc42d3e	0.0059868386
180	0xbd93107b	-0.07180878
181	0x3e3f2ef0	0.18670249
182	0xbb9fea82	-0.0048802504
183	0x3d0e05d8	0.03467354
184	0xbd2a5941	-0.041589025
185	0x3d33ff80	0.043944836
186	0x3d4f684f	0.050636586
187	0xbda61d58	-0.081110656
188	0xbd00158c	-0.03127055
189	0xbc053cdd	-0.008132187
190	0xbd873c2d	-0.066032745
191	0xbe430c2b	-0.1904761
192	0x3e709f9d	0.23498388
193	0xbd6c0954	-0.057626083
194	0xbe51b5a7	-0.20479451
195	0xbe22eca0	-0.15910578
196	0x3cba6d71	0.022757264
197	0x3de2f0ff	0.110811226
198	0xbe04439e	-0.12916419
199	0x3d80b898	0.062852085
200	0x3c47e97a	0.012201661
201	0x3dfb7da1	0.12279821
202	0xbc4b0b3e	-0.012392817
203	0x3d84548b	0.06461438
204	0xbd184cbd	-0.03718256
205	0xbe3bc672	-0.1833742
206	0x3d800965	0.06251792
207	0xbe50e3b0	-0.20399356
208	0xbc41e9c5	-0.01183552
209	0xbea02185	-0.31275573
210	0x3e00fec1	0.12597181
211	0xbd5bcd65	-0.053662676
212	0x3e6683ea	0.22511259
213	0x3c0e146c	0.008671861
214	0x3ea88cbe	0.32919878
215	0xbe254ddc	-0.16142982
216	0xbdc59af6	-0.09648697
217	0xbd06fd5b	-0.032956462
218	0xbb808e57	-0.003923218
219	0xbe5d73d5	-0.21626218
220	0xba1a2ad0	-0.00058810133
221	0xbcca4710	-0.024692088
222	0xbc674a78	-0.014116876
223	0xbdacddc5	-0.08440737
224	0x3e71a670	0.23598647
225	0xbe08c6c4	-0.13357073
226	0x3ceb07d1	0.02869025
227	0xbee2d9ae	-0.443067
228	0xbdb643fc	-0.08899686
229	0x3e421922	0.189549
230	0xbbdd413e	-0.0067521622
231	0xbe825e3f	-0.2546253
232	0xbcc5a4a6	-0.024126362
233	0x3da54675	0.08070079
234	0x3e8ae9ea	0.27131587
235	0x3d8d9069	0.0691231
236	0x3e24a2e6	0.16077766
237	0x3dc9471e	0.09828018
238	0x3e457911	0.19284464
239	0xbda63c20	-0.08116937
240	0x3d93d400	0.0721817
241	0x3c9c288c	0.019062303
242	0x3e2012eb	0.15632217
243	0x3e655c19	0.22398414
244	0x3e34fc19	0.17674293
245	0xbef6800e	-0.48144573
246	0x3d9cae36	0.076504156
247	0x3cdaf2ee	0.026727166
248	0xbe4f65a6	-0.2025362
249	0x3e7c5759	0.24642695
250	0xbe2316d3	-0.15926675
251	0x3e147e96	0.14501414
252	0xbd50fac9	-0.051020417
253	0xbe20d9d5	-0.15708096
254	0x3e16b826	0.14718685
255	0x3e24dacd	0.16099091
